PJ2&3_Digit_Recognition/part2-mnist/mnist_model_fully_connected.pt (torch, 905215 bytes, 8 tensors)

weight f4 [32, 1, 3, 3]
0	0x3e8a03e9	0.26956108
1	0xbc96cff1	-0.018409701
2	0xbf518c65	-0.8185485
3	0x3e49cc25	0.19706781
4	0x3f706ee3	0.939192
5	0x3e78eae3	0.24308352
6	0xbf2baa5b	-0.67056817
7	0x3ea9bd10	0.33152056
8	0x3d87d95c	0.06633255
9	0xbf050f9a	-0.5197693
10	0x3e8b04fa	0.27152234
11	0x3e4a5d49	0.19762148
12	0xbea5359c	-0.32267463
13	0x3e0ce6ab	0.13759868
14	0x3eb6b468	0.35684514
15	0xbec62234	-0.3869797
16	0x3e713fc9	0.23559488
17	0x3eeacc42	0.4585896
18	0xbe6924da	-0.22767964
19	0xbe1e32e1	-0.15449096
20	0xbe943d2b	-0.28952917
21	0xbecea017	-0.40356514
22	0xbebe8bf6	-0.37216157
23	0xbd32369f	-0.043509122
24	0xbead1d4b	-0.3381141
25	0x3e4c2510	0.19936013
26	0x3ec1659f	0.37772843
27	0xbe480e0c	-0.19536608
28	0xbeb19d40	-0.34690285
29	0x3d0b6c59	0.034038875
30	0x3cc6e8c4	0.024280913
31	0x3e1b03e4	0.15138203
32	0x3df94dd9	0.121730514
33	0xbe920174	-0.28516734
34	0x3c57d016	0.01317217
35	0x3ebbfca0	0.36716175
36	0x3e605e54	0.21910983
37	0x3ee9d51b	0.456704
38	0xbda5df04	-0.080991775
39	0x3c648ce9	0.013949611
40	0xbdd5cfcf	-0.10440027
41	0xbf14bf09	-0.58103997
42	0x3ed4beea	0.41551906
43	0xbd7e9af9	-0.062159512
44	0x3d64954d	0.055806447
45	0x3d28041e	0.04101955
46	0xbeee8ba5	-0.46590915
47	0xbe805c74	-0.25070536
48	0x3ea48d82	0.32139212
49	0xbf153545	-0.5828441
50	0xbf029f95	-0.5102475
51	0x3f34501e	0.7043475
52	0x3f18f52d	0.5974911
53	0x3e9fd6da	0.31218606
54	0xbe534514	-0.2063182
55	0xbf2df54d	-0.67952424
56	0xbee354a6	-0.4440052
57	0xbed28fb4	-0.41125262
58	0x3d800dae	0.06252609
59	0x3f1fbb4e	0.6239518
60	0x3f1c04c9	0.609448
61	0x3f0cf01a	0.55053866
62	0xbe87916f	-0.26478145
63	0x3e03f31b	0.12885706
64	0xbeca1c6d	-0.39474812
65	0xbe4f2785	-0.20229919
66	0x3eb2946c	0.34878862
67	0xbe35f91a	-0.17770806
68	0x3db9a069	0.09063799
69	0x3e95d70e	0.29265636
70	0xbd5f5b6d	-0.05453055
71	0x3dc8b39f	0.09799885
72	0x3eec43b3	0.461454
73	0xbed32975	-0.41242567
74	0xbf3d7b38	-0.7401614
75	0x3e992ef3	0.29918632
76	0x3eac7f86	0.33691043
77	0xbc7be8ff	-0.015375375
78	0xbd20b680	-0.039236546
79	0x3ea3f353	0.3202158
80	0x3e4b3e6f	0.19848035
81	0xbe80ae07	-0.25132772
82	0x3e11eb4a	0.14249912
83	0xbe9dcbf1	-0.30819657
84	0x3e3fae3f	0.18718813
85	0x3d24e91b	0.04026137
86	0xbf215b01	-0.63029486
87	0x3eed460e	0.4634251
88	0x3ef4b427	0.47793695
89	0xbeff6e5b	-0.49888882
90	0xbd8961ec	-0.0670813
91	0x3e04e7a4	0.12978989
92	0xbd79aa3e	-0.06095337
93	0xbd6d851d	-0.057988275
94	0xbe65225c	-0.22376388
95	0x3e667bf9	0.2250823
96	0xbea080ac	-0.3134817
97	0x3e85cd89	0.26133373
98	0xbd4ec92a	-0.050484814
99	0xbbc4df1c	-0.006008042
100	0xbece581d	-0.403016
101	0xbe78218e	-0.2423155
102	0xbf08f6e2	-0.53501713
103	0xbde1ba21	-0.110218294
104	0xbeaa624a	-0.33278114
105	0xbec03af2	-0.37544972
106	0xbe1f08df	-0.15530728
107	0xbd0ead13	-0.034833025
108	0xbdd57b65	-0.10423926
109	0xbe49ed56	-0.19719443
110	0xbdadd08e	-0.08487044
111	0xbe500f6c	-0.20318383
112	0xbeb9a7e5	-0.36260906
113	0xbe98e6db	-0.2986363
114	0x3ea687a6	0.32525367
115	0x3dbf859e	0.09351657
116	0xbea83992	-0.32856423
117	0x3e82f262	0.25575548
118	0xbd9aa069	-0.07550127
119	0xbf055e68	-0.5209718
120	0xbe29fb18	-0.16599691
121	0xbe0d9ec5	-0.13830097
122	0xbe928e0e	-0.28624004
123	0x3edadebb	0.42748055
124	0x3e025981	0.12729456
125	0x3f018ab9	0.506023
126	0xbe9cabea	-0.3059991
127	0xbe813749	-0.25237492
128	0x3db41aa7	0.08794146
129	0x3f0c623a	0.5483738
130	0x3f0ec396	0.5576719
131	0x3ee3f399	0.44521788
132	0xbe88d8a1	-0.26727775
133	0xbea42792	-0.3206144
134	0xbf0d2573	-0.5513527
135	0xbee0c343	-0.43898973
136	0xbf1dc7dc	-0.61633086
137	0xbede8ddb	-0.43467602
138	0xbdcd8df1	-0.10036839
139	0x3e211dec	0.1573407
140	0x3e51822e	0.20459816
141	0xbc9d920c	-0.01923468
142	0x3ecb4084	0.3969766
143	0x3e5f9745	0.21835048
144	0xbf0ede7a	-0.5580822
145	0x3e4c6b98	0.19962919
146	0x3ef530b4	0.4788872
147	0xbf404f99	-0.75121456
148	0x3e863a6e	0.26216453
149	0x3ed4ffd8	0.41601443
150	0xbefb83e3	-0.4912406
151	0x3e3d0979	0.18460645
152	0x3d29c73e	0.041449778
153	0xbf3b2c9c	-0.73114944
154	0x3eed0256	0.46290845
155	0x3f12e9aa	0.57387793
156	0xbd284ee6	-0.04109087
157	0x3f828145	1.01957
158	0xbec5cb5c	-0.38631713
159	0x3f10400f	0.56347746
160	0x3ec99612	0.39372307
161	0xbf5919db	-0.8480508
162	0x3f600664	0.8750975
163	0x3eddfb51	0.43355802
164	0x3f12e30b	0.5737769
165	0xbe5dd908	-0.21664822
166	0x3eb69199	0.35657957
167	0xbdda5e5d	-0.106625296
168	0xbf4bbd0b	-0.7958533
169	0xbf875a08	-1.057435
170	0xbe8b77ca	-0.2723983
171	0x3df897d4	0.12138334
172	0x3c9dd595	0.019266883
173	0xbc26628e	-0.010155333
174	0xbe5ea335	-0.21741946
175	0xbe1c9746	-0.15292081
176	0xbea37e64	-0.31932366
177	0xbe89b327	-0.26894495
178	0xbe85d239	-0.2613695
179	0x3e1ff544	0.15620905
180	0x3f268cc8	0.65058565
181	0x3f286935	0.65785533
182	0xbeb11354	-0.3458506
183	0x3ecfe258	0.40602374
184	0xbf05bd37	-0.52241844
185	0xbf2c0558	-0.67195654
186	0xbe20f4bd	-0.1571836
187	0xbecb4648	-0.39702058
188	0xbd22fe30	-0.039793193
189	0x3e8a683a	0.27032644
190	0x3ca06fea	0.019584615
191	0xbedb1827	-0.42791864
192	0x3ecf9f2e	0.40551132
193	0xbe87052c	-0.26371133
194	0xbe7a3fb4	-0.24438363
195	0x3e1aef89	0.15130438
196	0x3d963582	0.073344246
197	0xbe5c026d	-0.214853
198	0x3d202757	0.039100017
199	0xbc783132	-0.015148448
200	0xbe3b875e	-0.18313357
201	0xbe48a2a7	-0.19593297
202	0x3e6653ed	0.22492953
203	0xbe55f524	-0.20894295
204	0xbe159157	-0.14606224
205	0x3dd7082c	0.104996055
206	0xbc757b13	-0.014982956
207	0xbea9cc4e	-0.33163685
208	0x3e9b75af	0.30363223
209	0xbd45f7c4	-0.04833199
210	0xbedfcdd1	-0.43711713
211	0x3e90d398	0.28286433
212	0x3e340955	0.17581685
213	0xbeef475c	-0.4673413
214	0x3e9db91e	0.30805296
215	0x3d0dab00	0.034586906
216	0xbe3270e3	-0.17425875
217	0x3eb715d5	0.35758844
218	0x3e28b992	0.1647704
219	0xbdc124db	-0.09430858
220	0x3d17a6eb	0.03702442
221	0x3f022a26	0.50845563
222	0xbf134f9f	-0.5754337
223	0xbecf3770	-0.40471983
224	0xbd5662da	-0.052340366
225	0xbe3b3de1	-0.18285324
226	0x3e36c765	0.178495
227	0xbea5d1c7	-0.3238661
228	0x3e8950bb	0.26819405
229	0x3eba1158	0.36341357
230	0xbdc32664	-0.09528807
231	0xbe1073d2	-0.14106682
232	0x3d3cc497	0.04608592
233	0x3dc1fbda	0.09471865
234	0xbe84e9ab	-0.25959525
235	0xbe231dc7	-0.15929328
236	0xbe65ff3e	-0.22460648
237	0x3ed4b9c0	0.41547966
238	0xbe815d81	-0.2526665
239	0xbeda0bd0	-0.42587137
240	0xbd98d38e	-0.07462226
241	0x3ed76a07	0.4207308
242	0x3f0f4434	0.55963445
243	0x3ec25b39	0.37960222
244	0x3d8ce944	0.068804294
245	0xbe74dd64	-0.23912579
246	0xba554da7	-0.0008136876
247	0x3e1ffced	0.15623827
248	0xbe5df651	-0.21675994
249	0xbeb9c6db	-0.36284527
250	0xbdc5e13f	-0.09662103
251	0xbe76fe9b	-0.24120562
252	0xbee90373	-0.45510444
253	0xbf089d42	-0.53364956
254	0x3dc1cd4f	0.09462988
255	0xbed84130	-0.42237234

bias f4 [32]
0	0xbe866790	-0.26250887
1	0xbe2cbaa3	-0.16868071
2	0x3e2ffbc6	0.17185888
3	0xbde289dc	-0.11061451
4	0xbe433aef	-0.1906545
5	0xbe25c24f	-0.16187404
6	0xbd58df47	-0.05294731
7	0xbe026048	-0.12732041
8	0xbe99f618	-0.30070567
9	0xbd06539a	-0.032794572
10	0xbea01df9	-0.31272867
11	0x3eebf55d	0.46085635
12	0x3e7166c3	0.23574357
13	0xbe12e46f	-0.14344953
14	0xbc59e0e3	-0.013298246
15	0x3d32d6dd	0.04366194
16	0xbd5a3787	-0.05327561
17	0xbf2b0833	-0.66809386
18	0xbdde1a56	-0.10844867
19	0xbe114dd7	-0.1418985
20	0x3c56b8c8	0.013105579
21	0xbd3624b1	-0.044468585
22	0xbd4d4c03	-0.05012132
23	0x3d204301	0.0391264
24	0xbd18be93	-0.03729112
25	0xbe1a54ba	-0.15071383
26	0xbc8ff9d3	-0.01757518
27	0xbcd6b413	-0.026208913
28	0xbe909f94	-0.28246748
29	0xbe329a67	-0.17441712
30	0xbe3ee361	-0.18641426
31	0x3d6cb98c	0.05779414

weight f4 [64, 32, 3, 3]
0	0xbd99c93a	-0.07509084
1	0x3d95f3d3	0.073218964
2	0x3b907215	0.004408131
3	0x3bc67dd9	0.0060574827
4	0xbdcd7ac2	-0.1003318
5	0xbdae5a98	-0.08513373
6	0x3c981e29	0.018569069
7	0x3e115e72	0.14196184
8	0x3be3d96d	0.0069534094
9	0xbd989cf4	-0.074518114
10	0x3c0cc00f	0.008590712
11	0x3e1e250a	0.15443817
12	0xbd91ddd2	-0.07122387
13	0xbd281aea	-0.041041292
14	0xbc6819ab	-0.014166276
15	0x3cc15257	0.023598833
16	0x3d39bb5d	0.0453447
17	0xbc8b0aaf	-0.016972868
18	0x3ce1f9d3	0.027584946
19	0xbd962edc	-0.073331565
20	0xbd7a8024	-0.06115736
21	0x37b30e01	2.1344984e-05
22	0xbd267398	-0.040637583
23	0x3cd1172f	0.02552375
24	0xbdbdf782	-0.09275724
25	0xbce36222	-0.027756754
26	0xbcec2c49	-0.02882971
27	0x3d1437de	0.03618609
28	0xbccd8710	-0.025088817
29	0x3b8f5682	0.004374326
30	0x3d6624db	0.056187492
31	0xbd8edd54	-0.06975809
32	0x3c85ab21	0.016316952
33	0xbc7acfbd	-0.015308318
34	0xbcd8d4a5	-0.026468584
35	0x3d787b53	0.060664486
36	0xbd589fd4	-0.0528868
37	0xbd8faec8	-0.07015759
38	0xbbb13a1a	-0.0054085376
39	0xbd446eb3	-0.047957134
40	0x3cd991d9	0.026558803
41	0xbd59ef26	-0.053206585
42	0xbc6d7d5f	-0.014495223
43	0xbcc8db3f	-0.024518607
44	0xbc39ea6d	-0.011347395
45	0x3c90d2f5	0.017678717
46	0xbdd5afe8	-0.10433942
47	0xbdc92495	-0.098214306
48	0x3dfef5e2	0.12449242
49	0x3e58410d	0.21118565
50	0x3d9a8c76	0.07546322
51	0x3cd20be1	0.02564043
52	0x3cfd4e56	0.030921143
53	0x3d60f5f3	0.054922055
54	0xbd40ccbe	-0.047070257
55	0xbd74daeb	-0.05977909
56	0xbd51f8f7	-0.051262822
57	0x3d5c90e4	0.053849116
58	0xbbbb9b2a	-0.005725284
59	0xbcd898db	-0.026440075
60	0xbaa38f87	-0.0012478688
61	0x3d652e68	0.05595246
62	0x3d282690	0.0410524
63	0xbd943817	-0.07237261
64	0xbbe3d580	-0.0069529414
65	0x3c943286	0.018090498
66	0xbbfd8051	-0.007736244
67	0x3d9882ff	0.074468605
68	0x3d277f0c	0.040892646
69	0x3d57456c	0.05255644
70	0x3c9787a9	0.018497305
71	0x3cede7c9	0.029041188
72	0xbd206282	-0.039156444
73	0xbd0f5651	-0.034994427
74	0xbce001c5	-0.027344594
75	0xbd4af21a	-0.049547292
76	0x3c44749f	0.011990695
77	0x3b909b2e	0.00441303
78	0x3d331448	0.043720514
79	0x3d6faf89	0.058517013
80	0xbc830e46	-0.015998017
81	0xbd9b00e9	-0.07568533
82	0xbd847718	-0.06468028
83	0xbd22c518	-0.039738744
84	0x3d86343f	0.06552934
85	0x3d3995e9	0.04530898
86	0xbda5dd4f	-0.08098852
87	0x3b7b18f0	0.0038314424
88	0x3cd5b7a5	0.026088545
89	0x3d3cd6b5	0.046103198
90	0x3c967262	0.018365089
91	0x3d24cdf5	0.04023548
92	0xbd1b664f	-0.037939366
93	0xbc003109	-0.007824191
94	0xbd275fdc	-0.040862903
95	0xbd690aa9	-0.056894932
96	0xbb5a63d3	-0.003332366
97	0xbd16afe9	-0.036788855
98	0x3cb717dc	0.022350244
99	0x3ccc080b	0.024906179
100	0xbdc2ccac	-0.09511694
101	0xbdc2ca62	-0.09511258
102	0xbd913e97	-0.07092016
103	0x3bbb2c36	0.0057120575
104	0xbdd76314	-0.105169445
105	0xbcac2c5b	-0.021017244
106	0xbdb40e4d	-0.0879179
107	0xbdc16092	-0.094422475
108	0x3d5f34ba	0.054493643
109	0xbd4622a2	-0.048372872
110	0xbdd2a0da	-0.10284586
111	0xbd2f51ec	-0.042802736
112	0xbcedfa3d	-0.029049987
113	0xbc552b66	-0.013010835
114	0xbcc848e2	-0.024448816
115	0xbb2473f5	-0.002509353
116	0xbdadd0c4	-0.084870845
117	0xbd5c2afa	-0.053751923
118	0xbdd61a33	-0.10454216
119	0xbd6ed0b5	-0.058304507
120	0x3d6eb604	0.058279052
121	0x3d34d381	0.04414702
122	0x3bd56be1	0.0065131043
123	0xbc9ddf77	-0.019271595
124	0xb9fceab3	-0.0004824005
125	0x3d1f356d	0.03886931
126	0x3d06e528	0.032933384
127	0x3b4085aa	0.0029376545
128	0x3d2cd101	0.04219151
129	0xbd6da4c9	-0.05801848
130	0xbd9c357a	-0.07627387
131	0xbb352275	-0.0027638946
132	0x3d83e4d6	0.06440131
133	0xbc7954bb	-0.015217955
134	0xbda45595	-0.08024136
135	0xbd82a3cd	-0.06378899
136	0xbdb26e72	-0.08712472
137	0xbc506945	-0.012720411
138	0x3d470802	0.04859162
139	0xbd0a24d8	-0.033726543
140	0xbdba6393	-0.091010235
141	0xbd09ca1a	-0.033640005
142	0x3c3f14a2	0.011662634
143	0x3db030fc	0.08603093
144	0x3c65f99f	0.014036565
145	0x3d8aa4b7	0.06769698
146	0x3d88a7b4	0.06672612
147	0xbd270d53	-0.04078419
148	0xbdb6cf61	-0.08926273
149	0x3c176710	0.009240881
150	0xbcb3c661	-0.02194518
151	0xbd4c4868	-0.04987374
152	0xbcf7e81a	-0.030262042
153	0xbdb20753	-0.08692803
154	0xbd89e214	-0.06732574
155	0x3dacdbed	0.08440385
156	0xbc0c8cb9	-0.008578473
157	0xbdf9ed69	-0.122034855
158	0xbe177b40	-0.1479311
159	0xbad5f239	-0.0016322798
160	0xbd53c234	-0.05169888
161	0x3d9438c5	0.072373904
162	0xbaebca31	-0.0017989335
163	0x3d284092	0.041077204
164	0x3dc00124	0.093752176
165	0xbdc9658b	-0.09833821
166	0x3d84750e	0.06467639
167	0x3d6423d1	0.05569822
168	0xbd92729b	-0.071507655
169	0x3cbed685	0.02329565
170	0xbd2a52ad	-0.041582752
171	0x3d1a20d7	0.037628975
172	0x3d59df45	0.053191442
173	0xbcc95235	-0.024575332
174	0xbd358fdc	-0.044326648
175	0xbc9e50b9	-0.019325601
176	0xbd57d2e6	-0.052691363
177	0x3d35cffc	0.044387802
178	0x3c326a59	0.010889613
179	0x3cd86704	0.02641631
180	0xbe299e9b	-0.1656441
181	0xbd775323	-0.06038202
182	0xbcf840bb	-0.030304303
183	0xbdb4032e	-0.08789669
184	0xbd58aec0	-0.05290103
185	0xbcc5cfe6	-0.024146985
186	0xbd95631e	-0.07294296
187	0xbdf8a211	-0.12140287
188	0xbdfad976	-0.12248509
189	0xbdddfe92	-0.10839571
190	0x3ae7eae8	0.0017693909
191	0xbd2b3e8a	-0.04180769
192	0x3cdf7432	0.027277086
193	0x3c48a89f	0.012247234
194	0xbd1734f0	-0.03691572
195	0xbc8f706f	-0.017509667
196	0x3cba5650	0.022746235
197	0xbd7ca961	-0.06168497
198	0x3d24da8e	0.040247492
199	0x3c6376b1	0.013883279
200	0x3cabc5e7	0.02096839
201	0x3c345eb1	0.011008904
202	0x3d5dcd30	0.05415076
203	0x3ca2e6a4	0.019885369
204	0xbcd535da	-0.026026655
205	0x3d363765	0.044486422
206	0xbc646b1e	-0.013941554
207	0xbb124cd9	-0.0022323637
208	0xbcd74c47	-0.026281489
209	0x3c402e32	0.011729764
210	0xbd3810be	-0.04493784
211	0xbd0ce0b8	-0.034393996
212	0xbb4d8744	-0.0031361142
213	0xbd9ac90d	-0.07557879
214	0xbc02bcb5	-0.007979562
215	0xbcb5e707	-0.022204889
216	0xbcaa5381	-0.02079177
217	0x3d0059ed	0.03133576
218	0x3d8e975d	0.06962464
219	0xbd23d7e6	-0.04000082
220	0xb9c5a7a4	-0.0003769967
221	0x3d9f49a0	0.07777715
222	0x3d6f467c	0.05841683
223	0x3c977784	0.018489607
224	0xbd6e2aad	-0.058146168
225	0xbdd0be15	-0.10192505
226	0x3ca99daf	0.020705072
227	0x3d613b86	0.054988407
228	0x3d338164	0.04382457
229	0xbd2d20ff	-0.042267796
230	0xbc8714d8	-0.016489431
231	0x3d83ecd6	0.06441657
232	0xbcb406f0	-0.021975964
233	0x3d38f052	0.045151062
234	0xbd9a1bff	-0.07524871
235	0xbdbd6d4c	-0.09249362
236	0xbcb5ef8b	-0.02220895
237	0x3e065079	0.13116635
238	0x3c9bd7c7	0.01902379
239	0x3c793554	0.015210468
240	0x3c90ace7	0.017660571
241	0x3dcc8818	0.09986895
242	0x3d687de5	0.056760687
243	0xbc371e67	-0.011176682
244	0xb97d6eaf	-0.00024169193
245	0xbd0bc2a8	-0.034121186
246	0xbc895e2b	-0.016768536
247	0xbc9b6924	-0.018971033
248	0x3c8f2ede	0.017478403
249	0x3cadc26d	0.021210873
250	0x3cfe53ec	0.031045876
251	0xbd71ee4f	-0.05906516
252	0xbcf82679	-0.030291783
253	0xbda89d0b	-0.082330786
254	0x3d311910	0.043236792
255	0x3d8bde68	0.0682953

bias f4 [64]
0	0xbd2395af	-0.03993767
1	0xba403a17	-0.0007332875
2	0x3c8f44aa	0.017488796
3	0xbc7950d8	-0.015217029
4	0xbd8e9969	-0.069628544
5	0xbcbb8cd0	-0.022894293
6	0xbe03518a	-0.12824073
7	0xbe6e0a27	-0.2324606
8	0xbd67027a	-0.056398846
9	0xbe60192c	-0.21884602
10	0xbd51be70	-0.051207006
11	0xbd160eac	-0.036635086
12	0xbd037f74	-0.03210397
13	0xbd8bf87f	-0.06834506
14	0xbdc9cebc	-0.098538846
15	0xbd6a01a6	-0.05713048
16	0xbde2682f	-0.11055028
17	0xbd09cab4	-0.03364058
18	0xbda50c45	-0.08058981
19	0xbd4a044a	-0.049320497
20	0xbd950427	-0.072761826
21	0xbd2d899a	-0.042367555
22	0x3bc68860	0.0060587376
23	0xbcb2cc17	-0.021825833
24	0xbda458f1	-0.08024777
25	0xbd3a2554	-0.045445755
26	0xbdbd0413	-0.09229293
27	0xbd4f2a29	-0.050577316
28	0xbe19a224	-0.15003258
29	0xbc946169	-0.018112855
30	0xbcd7427a	-0.026276816
31	0xbde72db6	-0.112880155
32	0xbde1dc4e	-0.11028348
33	0xbe7e641f	-0.2484288
34	0xbd75dc6f	-0.060024675
35	0xbd203de6	-0.03912153
36	0xbdb5e0a3	-0.08880737
37	0xbc2b9a27	-0.0104737645
38	0xbca14891	-0.019687923
39	0xbd2cd7a9	-0.042197857
40	0xbc24eed5	-0.010066708
41	0xbd9895f1	-0.07450474
42	0xbe568583	-0.20949368
43	0xbd296746	-0.041358255
44	0xbd0bca7f	-0.034128662
45	0xbda09706	-0.078413054
46	0x3d1cbecf	0.038267907
47	0x3a672c53	0.00088185555
48	0xbca72e7e	-0.020407911
49	0xbe084a1e	-0.13309523
50	0xbcfb9042	-0.030708436
51	0x3c85b069	0.01631947
52	0xbd87439b	-0.066046916
53	0xbe2e0a01	-0.16996004
54	0xbd99727d	-0.0749254
55	0xbd18b61c	-0.037283048
56	0xbd63d81e	-0.055626027
57	0xbe6aef8d	-0.22942944
58	0xbd16f238	-0.03685209
59	0xbd8396bf	-0.06425237
60	0xbc94989c	-0.018139176
61	0xbe39927e	-0.18122289
62	0xbd8539d2	-0.06505169
63	0xbd153131	-0.036423866

weight f4 [128, 1600]
0	0xbcbc9f08	-0.02302505
1	0xba32e2f1	-0.0006823978
2	0x3d62c6d3	0.055365395
3	0x3c9e709d	0.019340808
4	0x3d0c51b8	0.03425762
5	0x3c17c577	0.009263388
6	0xbcaf71a5	-0.021416495
7	0xbcab6818	-0.02092366
8	0xbb26968d	-0.0025419325
9	0x3c80be3e	0.015715715
10	0xbca9f8f8	-0.0207486
11	0xbc8af371	-0.016961785
12	0x3acbbb08	0.001554341
13	0x3cd33df2	0.025786374
14	0x3cf181b3	0.02948079
15	0x3b5cf10d	0.0033713013
16	0x3d2b3b77	0.041804757
17	0x3d1b418d	0.03790431
18	0x3be75c37	0.0070605534
19	0x3cb636ac	0.022242866
20	0xbbff3a0d	-0.0077889026
21	0x3b0fccd6	0.002194216
22	0x3cb98e68	0.022650912
23	0x3a05a658	0.00050983345
24	0x3b553b59	0.0032536595
25	0xbc83af61	-0.016074838
26	0x39263164	0.00015849393
27	0x3b50aa22	0.0031839688
28	0x3c9f803d	0.019470328
29	0xbcc252a4	-0.023721047
30	0xbcc183bb	-0.023622384
31	0xbbfa26ba	-0.007634011
32	0x3c1b0b61	0.009463162
33	0x3cd02da6	0.025412392
34	0xb877b71d	-5.9059927e-05
35	0xbc20b77c	-0.009809371
36	0xbcb5a7c6	-0.022174727
37	0x3d4be56a	0.049779333
38	0x3d1bb4c7	0.0380142
39	0x3d1c5133	0.038163375
40	0xbd0c23b4	-0.034213737
41	0x3af43876	0.0018632549
42	0x3ccbdcdf	0.024885593
43	0xbc670912	-0.014101284
44	0x3ade289e	0.0016949361
45	0x3bc08fb6	0.0058765067
46	0xba06179a	-0.0005115211
47	0x3d2c16e2	0.04201401
48	0x3c2cb1cc	0.010540437
49	0xbd17e79d	-0.037086118
50	0xbbc8b3ce	-0.00612495
51	0xbad560b8	-0.0016279435
52	0x3cf893d1	0.030343922
53	0xbc58979a	-0.013219738
54	0xbb831f4b	-0.004001533
55	0xbc93c819	-0.01803975
56	0xbc5fa4e7	-0.013650156
57	0x3c3b62c5	0.011437123
58	0xbb971a34	-0.004611278
59	0xbbdb9228	-0.006700773
60	0xbc888428	-0.01666458
61	0xbb854d87	-0.00406808
62	0x3c34fac6	0.011046117
63	0x3c89d824	0.016826697
64	0xbc8d5e62	-0.01725692
65	0xbc8aa3b1	-0.016923757
66	0xb8e1bfc2	-0.00010764554
67	0xbc9453b9	-0.018106328
68	0x3caff2a7	0.02147801
69	0xbc53eabe	-0.012934385
70	0x3c941370	0.018075675
71	0xbcb5c1b7	-0.022187097
72	0x3be298e4	0.0069151986
73	0x3c1c9260	0.009556383
74	0xbc48c6d8	-0.012254439
75	0xbc91c9ea	-0.017796475
76	0xbcac8a1e	-0.021061953
77	0xbd0e720c	-0.034776732
78	0xbd93ff84	-0.0722647
79	0xba0b528c	-0.00053147296
80	0x3ccfd1b1	0.025368543
81	0xbc4377ca	-0.011930415
82	0x3c69299a	0.01423111
83	0xbd8391ee	-0.06424318
84	0xbab16809	-0.0013535033
85	0x3ba7f097	0.005125116
86	0x3d14809b	0.03625546
87	0x3d710b4a	0.058848657
88	0x3c703cf9	0.0146629745
89	0xbb01b95d	-0.0019794323
90	0x3ab86ea7	0.0014071063
91	0xbd75e6db	-0.060034614
92	0x3bec1776	0.007204945
93	0x3c2be9c6	0.010492748
94	0x3c00c073	0.0078583835
95	0x3cafd2ad	0.021462763
96	0xbd1c09fe	-0.038095467
97	0xbbedd156	-0.007257621
98	0xbd0fc49b	-0.035099607
99	0x3c130a4c	0.008974623
100	0x3c96e45d	0.018419439
101	0x3cd0d766	0.025493335
102	0x3d65a01d	0.0560609
103	0x3d491ef0	0.04910177
104	0x3c2958b1	0.010336087
105	0xbcb881e8	-0.022522882
106	0xbb92ce4b	-0.0044801584
107	0x3d557279	0.052111123
108	0x3d3c0692	0.045904703
109	0xbc1b762f	-0.009488626
110	0xba106eae	-0.00055096566
111	0xbcc63f4a	-0.0242001
112	0xbd03c976	-0.03217455
113	0x3c183517	0.009290001
114	0x3b195206	0.0023394837
115	0xbc8db929	-0.017300205
116	0xb97d4f16	-0.00024157422
117	0xbc4d72d0	-0.01253958
118	0x3c07269a	0.008248949
119	0xbae85779	-0.0017726264
120	0x3c9a8d60	0.018866241
121	0x3da108a3	0.078629754
122	0x3d02554a	0.03181962
123	0x3c0f1f5b	0.008735503
124	0xbd1b4950	-0.037911713
125	0xbc08992f	-0.008337303
126	0xbac510b6	-0.0015034887
127	0x3d1888c0	0.03723979
128	0x3ccce4b0	0.02501139
129	0xbcbb38e7	-0.022854282
130	0xbd04b8e8	-0.032402903
131	0x3c0e5553	0.008687335
132	0x3cdde620	0.027087271
133	0xbad83c86	-0.001649753
134	0x39bf26df	0.0003645932
135	0xbce9c956	-0.028538387
136	0x3c60dd03	0.013724568
137	0x3da1016a	0.07861598
138	0x3d13ca30	0.036081493
139	0x3cff044d	0.03112998
140	0xbd0e66d2	-0.034766026
141	0x3d00f66c	0.031485006
142	0x3ca2b3cb	0.019861123
143	0xbbd7b7e8	-0.0065832026
144	0xbc09a7e8	-0.008401848
145	0xbbcb8caf	-0.006211839
146	0x3cdfdab1	0.02732596
147	0xbd18f6d8	-0.037344784
148	0x3c227855	0.009916385
149	0xbcb21f74	-0.021743514
150	0xbc82e6d7	-0.015979214
151	0xbaf17e4c	-0.001842448
152	0xbce6e583	-0.028185612
153	0x3c72f839	0.014829689
154	0x3ca141bb	0.019684663
155	0x3c9ad0f6	0.018898468
156	0x3a6f44c0	0.0009127371
157	0x3d15858d	0.036504317
158	0xb9ec356f	-0.0004505324
159	0x3b622b96	0.0034510843
160	0xbbd2bb49	-0.0064310175
161	0x3d215651	0.03938896
162	0x3bb7f098	0.005613398
163	0x3c0b9469	0.00851927
164	0xbc24b809	-0.010053643
165	0xbc46b842	-0.012128891
166	0xbcc554a8	-0.024088219
167	0xbc2b6180	-0.0104602575
168	0xbd2586b1	-0.040411655
169	0xbc187c9b	-0.009307052
170	0x3aa1e633	0.001235193
171	0xbcc2bf31	-0.023772808
172	0x3af24edd	0.0018486638
173	0x3c2c1344	0.01050264
174	0xbc3455ba	-0.011006767
175	0x3a31dc54	0.00067848456
176	0x3c91a224	0.01777751
177	0x3d2920db	0.0412911
178	0x3de932e6	0.11386661
179	0x3aca029f	0.0015412158
180	0x3ac79bf6	0.0015228975
181	0x3d4227d5	0.047401268
182	0x3d4933df	0.049121734
183	0x3b9b3a13	0.0047371476
184	0x3b4fb7e1	0.0031695294
185	0xba33b608	-0.0006855433
186	0xbd1b4bab	-0.03791396
187	0xbbf77df3	-0.007552856
188	0xbd23d281	-0.039995674
189	0xbb68fd56	-0.003555139
190	0xbce13e1f	-0.027495442
191	0xbc9b95cb	-0.018992325
192	0xbcab92df	-0.020944057
193	0xbc8a1362	-0.016854946
194	0x3cf0b7a1	0.029384436
195	0xbbe2ca0c	-0.0069210585
196	0xbb55263d	-0.0032524012
197	0xbdb866af	-0.0900396
198	0x3c1434d3	0.009045797
199	0xbc7441ca	-0.014908263
200	0x3c1985c8	0.009370275
201	0xbccdbef7	-0.025115473
202	0x3cdc0595	0.02685813
203	0x3c0a3c4b	0.0084372265
204	0x3c55f8cc	0.013059806
205	0xbb4bf1f6	-0.0031119562
206	0x3c90abec	0.017660104
207	0xbd294d61	-0.04133356
208	0xbd0a4ff1	-0.033767644
209	0xbc853670	-0.01626131
210	0xbc0df747	-0.008664913
211	0xbc8b7ac6	-0.017026316
212	0x3c9c81dc	0.01910489
213	0xba5fe448	-0.00085407915
214	0x3ccdb441	0.025110366
215	0x3b83cc7d	0.0040221796
216	0x3d386035	0.045013625
217	0x3d78d865	0.060753245
218	0x3ccf37d7	0.025295181
219	0xbcdbd0b3	-0.026832914
220	0x3c96e1e3	0.018418258
221	0x3d3f06fc	0.04663752
222	0x3cc7b171	0.024376603
223	0x3c43fba7	0.011961854
224	0xbca1e874	-0.019764163
225	0xbd05d171	-0.032670442
226	0x3d45ae0a	0.04826168
227	0x3d1efbd0	0.038814366
228	0x3d93102d	0.0718082
229	0x3cc1a364	0.023637481
230	0xbce2ad70	-0.027670592
231	0x3c9c34ca	0.01906814
232	0xbd1b7c1d	-0.03796016
233	0x3d3d8b81	0.04627562
234	0x3d7163f8	0.05893323
235	0xbcbee091	-0.023300441
236	0xbd945acf	-0.07243883
237	0xbc9c9578	-0.019114241
238	0x3d1cebc6	0.03831079
239	0xbce18447	-0.027528895
240	0x3c52ba8d	0.01286186
241	0xbce5cc52	-0.02805153
242	0x3d4a8133	0.04943962
243	0x3b00b3ec	0.0019638492
244	0xbdb2cf0c	-0.08730897
245	0x3c03c8bd	0.008043465
246	0xbc1d2bc0	-0.00959295
247	0xbd27934c	-0.040911958
248	0xbd28bae9	-0.041193876
249	0xbd0347db	-0.03205095
250	0xbc4f0dbb	-0.012637551
251	0xbc3d60e1	-0.011558742
252	0xbd1c6a1e	-0.03818714
253	0xbc5d832a	-0.0135200415
254	0x3bc54260	0.0060198754
255	0x3c292bb8	0.010325365

bias f4 [128]
0	0xbd65b3bf	-0.056079622
1	0x3cf87ff1	0.030334445
2	0xbcb97495	-0.022638598
3	0xbc81589c	-0.015789323
4	0xbccbdfa9	-0.024886923
5	0xbd4d2352	-0.050082512
6	0x3c3910f3	0.011295545
7	0xbd542cc4	-0.051800504
8	0x3c92da14	0.017926253
9	0x3d90c221	0.07068277
10	0xbcb8073e	-0.02246439
11	0x3c2c48a5	0.010515367
12	0x3d15b446	0.036548875
13	0x3c3eb292	0.011639254
14	0xbd385f02	-0.04501248
15	0xbd9c4cec	-0.07631859
16	0xbd920ddb	-0.07131549
17	0xbc1741da	-0.009232009
18	0xbd99ebd9	-0.075156875
19	0xbc9b2450	-0.018938214
20	0xbce87a95	-0.028378764
21	0x3d0987ee	0.0335769
22	0x3c55c6c4	0.013047878
23	0xbd463b2f	-0.048396286
24	0xbc2a65aa	-0.010400215
25	0x3c3b2fbf	0.011424958
26	0x3d067d1a	0.03283415
27	0x3c9e5c8e	0.019331243
28	0xbd8608cb	-0.06544646
29	0x3d62ecaf	0.0554015
30	0x3c9dd6a1	0.019267382
31	0x3d835625	0.06412915
32	0xbc03cda4	-0.008044634
33	0xbd5f0bea	-0.05445472
34	0xbd3a2be4	-0.045452014
35	0xbd71abd7	-0.05900177
36	0x3d4dd985	0.05025627
37	0x3d127fcd	0.03576641
38	0x3d626578	0.05527255
39	0x3cb3983e	0.02192318
40	0x3ce4d41b	0.027933171
41	0xbd2239c9	-0.03960589
42	0x3c0111ad	0.007877749
43	0x3d9ff48f	0.07810318
44	0x3c82dbe0	0.015973985
45	0xbc171629	-0.009221592
46	0xbac1fb1a	-0.0014799566
47	0x3d07d304	0.033160225
48	0x3d79d73f	0.06099629
49	0x3cbaa32d	0.022782886
50	0xbb80628e	-0.0039179986
51	0xbce682a1	-0.02813846
52	0xbd886fd4	-0.066619545
53	0x3d10ff48	0.035399705
54	0x3d8d0e36	0.06887476
55	0x3c4b6307	0.012413747
56	0x3bf6aa2b	0.00752761
57	0xbd47dda1	-0.048795346
58	0x3b821b81	0.003970564
59	0x3ce77049	0.028251784
60	0x3db42dbe	0.08797787
61	0x3b5e8924	0.0033956254
62	0x3ca6cd06	0.020361435
63	0xbc8bd977	-0.017071469
64	0xbceabb1f	-0.02865368
65	0xbd762bdd	-0.060100425
66	0xbc5a4410	-0.013321891
67	0xbb90fb11	-0.0044244607
68	0xbd51b7d8	-0.051200718
69	0x3d22d7b8	0.039756507
70	0x3d50ffa1	0.051025037
71	0xbd3cb19b	-0.046067815
72	0xbdb06007	-0.08612066
73	0x3d1a81ce	0.037721448
74	0xbcf96639	-0.030444251
75	0xbd7c3a3a	-0.061578967
76	0x3d33467e	0.0437684
77	0xbcb95d0a	-0.022627372
78	0xbd4ce153	-0.050019573
79	0x3d121031	0.035659973
80	0x3d1067ae	0.035255127
81	0xbd0a5847	-0.033775594
82	0x3cc7f820	0.024410307
83	0x3cdaf0ef	0.026726214
84	0x3ce10dd2	0.02747241
85	0x3cf5f45a	0.030023742
86	0x3cfa10d7	0.030525608
87	0x3d1ee821	0.038795594
88	0xbb743eca	-0.003726887
89	0xbc0142c0	-0.00788945
90	0x3d6a2447	0.057163503
91	0x3d17110a	0.036881484
92	0xbcf5ea01	-0.030018808
93	0xbd1811f7	-0.037126508
94	0x3cb2ffeb	0.021850547
95	0x3a84f88a	0.0010144871
96	0x3cbdb751	0.023158701
97	0x3d27fbd1	0.041011635
98	0x3c4d538d	0.012532127
99	0x3cb40970	0.021977156
100	0xbd6573fe	-0.056018822
101	0xbd5c0564	-0.05371608
102	0xbbbf1007	-0.005830768
103	0x3d84cc83	0.0648432
104	0xbb3862c0	-0.0028135031
105	0x3cc6404b	0.02420058
106	0x3a213b34	0.00061504846
107	0x3d4e5f45	0.050383825
108	0xbccfee34	-0.025382139
109	0x3d3a579f	0.04549372
110	0x3d1d789d	0.038445104
111	0x3cbf88ce	0.023380663
112	0x3d062aa7	0.03275552
113	0xbc8b4a01	-0.017003061
114	0x3c1cdfd5	0.00957485
115	0x3d25b1cd	0.040452767
116	0xbda13277	-0.078709535
117	0x3d034709	0.032050166
118	0x3aa65f5f	0.0012693218
119	0xbd22dfa8	-0.039764076
120	0xbd36eee6	-0.044661425
121	0x3d42a4c0	0.0475204
122	0xb95de463	-0.00021161283
123	0xbd34221b	-0.043977838
124	0xbd809393	-0.062781475
125	0xbaad3d9c	-0.0013217214
126	0xbbf63329	-0.007513423
127	0x3cbdd7e1	0.023174228

weight f4 [10, 128]
0	0x3e3fcda6	0.18730792
1	0xbe93fee3	-0.289054
2	0xbde2f76e	-0.1108235
3	0xbe549f41	-0.20763876
4	0xbe840217	-0.25782844
5	0xbe87eceb	-0.26547942
6	0xbdde1c91	-0.10845292
7	0xbee764aa	-0.45193988
8	0xbe426500	-0.18983841
9	0x3e0592a1	0.13044216
10	0xbe7aa39d	-0.24476476
11	0xbe161bcd	-0.14659043
12	0xbe2a90ac	-0.1665675
13	0xbe292f97	-0.1652206
14	0x3e2692dd	0.16266961
15	0xbe7e8b01	-0.24857713
16	0xbdfdea9c	-0.12398264
17	0x3d5ab136	0.053391658
18	0xbdfe2aba	-0.12410493
19	0xbe3bda7f	-0.18345068
20	0xbe6fa382	-0.23402217
21	0x3d4cbff4	0.04998775
22	0x3dd27c40	0.10277605
23	0xbd57758f	-0.052602347
24	0x3e964768	0.29351354
25	0xbe8e5e0a	-0.2780612
26	0xbe6b130e	-0.22956488
27	0xbe8fb42b	-0.28067145
28	0xbe329b57	-0.1744207
29	0xbcbe5ea5	-0.02323849
30	0xbb8a980e	-0.004229552
31	0xbdd55167	-0.10415917
32	0xbe568ca9	-0.20952095
33	0x3e4b7402	0.19868472
34	0xbdbc32ef	-0.09189402
35	0xbe4b849e	-0.19874808
36	0x3df4dfb0	0.119567275
37	0xbe060d9c	-0.13091129
38	0xbe089b1d	-0.13340421
39	0xbe4fecde	-0.20305201
40	0xbe25db97	-0.16197048
41	0x3e75a468	0.23988497
42	0x3c9772a1	0.018487277
43	0xbd69d6c4	-0.057089582
44	0x3e037ee2	0.1284137
45	0x3e2c49b7	0.16824995
46	0x3ddcf923	0.107897066
47	0xbea15425	-0.3150951
48	0xbe43ecf0	-0.19133353
49	0xbd9d04e2	-0.07666947
50	0xbd9daf35	-0.07699434
51	0xbdedfd3b	-0.116205655
52	0xbe6e9b90	-0.2330153
53	0x3e92e5af	0.2869086
54	0x3e9844c6	0.2973997
55	0xbe315225	-0.17316492
56	0xbe5f778f	-0.21822952
57	0xbe4474cd	-0.19185181
58	0x3e8e4b3d	0.27791777
59	0xbea9d8c4	-0.33173192
60	0x3e2d21de	0.1690745
61	0xbe8a6783	-0.27032098
62	0xbe334de5	-0.17510183
63	0xbe5d24f4	-0.21596128
64	0xbe7f055a	-0.24904385
65	0xbd303a02	-0.04302407
66	0x3c985b23	0.018598145
67	0xbe524702	-0.205349
68	0xbe567bcd	-0.20945664
69	0xbcc9740f	-0.024591474
70	0xbe824249	-0.25441197
71	0x3dfd111a	0.123567775
72	0x3dc9b4b0	0.098489165
73	0x3da43e2d	0.080196716
74	0xbe1305ff	-0.14357756
75	0x3bec8f52	0.0072192336
76	0x3da0a619	0.078441806
77	0xbe04b024	-0.12957817
78	0x3e2c237c	0.16810411
79	0xbe253cb8	-0.16136444
80	0x3e5e0228	0.2168051
81	0xbe9b7caf	-0.30368564
82	0xbde7df83	-0.11321928
83	0xbe643d2a	-0.22288957
84	0x3e9f41e4	0.31104958
85	0xbdbfb2d9	-0.09360284
86	0x3d7fbfed	0.062438894
87	0x3d7d574f	0.061850842
88	0x3e83d74d	0.257502
89	0xbe01e293	-0.12684087
90	0x3e3da3c7	0.18519507
91	0x3d4215d9	0.047384117
92	0xbea2bbfa	-0.3178404
93	0xbe404631	-0.18776776
94	0x3e899b4d	0.26876298
95	0x3e4f4482	0.20240977
96	0x3e4d9a23	0.2007833
97	0x3e22f082	0.15912059
98	0xbe58669f	-0.21132897
99	0xbd69fd15	-0.057126123
100	0xbe61c20d	-0.22046681
101	0xbe2e198e	-0.17001936
102	0x3e618202	0.2202225
103	0x3e5dbc47	0.21653853
104	0x3dd18e04	0.102321655
105	0x3e0b9f9b	0.13635103
106	0xbdb605dd	-0.08887837
107	0xbe1bf7b6	-0.15231213
108	0xbe461e8b	-0.19347589
109	0xbe30f5d7	-0.1728128
110	0xbe943a40	-0.2895069
111	0xbe3644e6	-0.1779972
112	0x3d7bfe1b	0.06152163
113	0x3ddfacc8	0.10921627
114	0xbd6d77ef	-0.057975706
115	0xbd8888d9	-0.066667266
116	0xbe627a4c	-0.22116965
117	0x3dceef6d	0.101042606
118	0x3e2440c3	0.1604033
119	0xbe5fd1d8	-0.21857393
120	0xbdbc6f81	-0.09200955
121	0x3e3ebbe6	0.18626365
122	0x3e79a4e8	0.24379313
123	0x3e1fccff	0.15605544
124	0x3e282ff6	0.16424546
125	0x3d96dfcd	0.07366905
126	0xbe8f8101	-0.2802811
127	0x3d917220	0.07101846
128	0xbe6478eb	-0.22311752
129	0x3e08088e	0.13284513
130	0xbc87dc1a	-0.016584445
131	0xbe6cb22b	-0.2311484
132	0x3e5d3f78	0.21606243
133	0xbdeb6b64	-0.114950925
134	0x3e1a9abf	0.15098093
135	0xbd8b98e8	-0.06816274
136	0x3e9dac56	0.30795544
137	0x3e54d79d	0.20785375
138	0xbd97c178	-0.07409948
139	0x3e114d8b	0.14189737
140	0x3e58611e	0.21130797
141	0x3e167ef9	0.14696874
142	0xbe4ba367	-0.19886552
143	0xbe153bd9	-0.14573611
144	0xbe4e1868	-0.20126498
145	0x3cc45eb4	0.02397094
146	0xbe1a89b0	-0.15091586
147	0x3e836d79	0.25669459
148	0x3d413859	0.047172878
149	0x3d1d7c7f	0.038448807
150	0xbc449964	-0.011999462
151	0xbe3f2e8a	-0.18670097
152	0xbd9416b0	-0.0723089
153	0x3e601953	0.2188466
154	0x3e28d85e	0.16488788
155	0x3e4a39ab	0.19748561
156	0xbe0a8f03	-0.13531117
157	0x3e2aee66	0.16692504
158	0xbd8862dc	-0.06659481
159	0x3eb08938	0.3447969
160	0x3e4ee3c7	0.20204078
161	0xbe6ee10d	-0.23328038
162	0xbe6f0180	-0.23340416
163	0xbe838dca	-0.25694114
164	0x3dea1f93	0.114318036
165	0x3e36214d	0.1778614
166	0x3e97587e	0.29559702
167	0x3e65ee9f	0.22454308
168	0x3e67194f	0.22568248
169	0xbde829ee	-0.113361225
170	0x3e06a739	0.13149728
171	0x3e7b3f3b	0.2453584
172	0xbd10ae19	-0.035322282
173	0xbe8a0d8d	-0.26963463
174	0xbde8fe81	-0.11376668
175	0x3e6d0ac0	0.23148632
176	0x3eaf8745	0.3428289
177	0x3e5c400f	0.21508811
178	0x3d6aba68	0.057306677
179	0xbe57a8ba	-0.21060458
180	0xbe9242fd	-0.28566733
181	0x3dc4eee8	0.0961588
182	0x3e6cd424	0.231278
183	0x3df4a4d5	0.11945502
184	0x3eaae4dd	0.33377734
185	0xbe6f8a7b	-0.2339267
186	0xbe34fff0	-0.17675757
187	0x3e08096c	0.13284844
188	0x3e896c4a	0.2684043
189	0x3e527971	0.20554139
190	0x3e839f60	0.2570753
191	0xbc907f85	-0.017638931
192	0x3d30651b	0.04306517
193	0xbe115330	-0.1419189
194	0x3dec6e9f	0.11544537
195	0x3dca9cc0	0.09893179
196	0x3d12c34e	0.03583079
197	0x3e73a9ea	0.23795286
198	0x3e5c95ff	0.21541594
199	0xbe6494ab	-0.22322337
200	0xbea5a0b5	-0.32349172
201	0x3e2926fd	0.16518779
202	0x3c5a03e7	0.013306594
203	0xbe8bf4d3	-0.27335224
204	0x3e253c20	0.16136217
205	0xbe29c0a0	-0.16577387
206	0xbe94a8c4	-0.29035008
207	0x3e478526	0.19484386
208	0x3eaa2000	0.3322754
209	0x3bec187a	0.0072050663
210	0x3dbb4888	0.091446936
211	0x3e54d51e	0.20784423
212	0xbdebad64	-0.11507681
213	0x3df2762a	0.11838944
214	0x3e454112	0.19263104
215	0xbd72e14b	-0.059296887
216	0xbe28ac15	-0.16471894
217	0x3e9b2cf7	0.30307743
218	0x3e2873ca	0.1645042
219	0x3cf8fa56	0.030392807
220	0xbe54de80	-0.20788002
221	0xbe1d8ae6	-0.15385017
222	0x3d24ed62	0.04026545
223	0xbea5cae8	-0.32381368
224	0xbe647ba8	-0.22312796
225	0x3e66a897	0.2252525
226	0x3eb74e71	0.35802034
227	0x3e6f58ea	0.23373762
228	0xbe8cba40	-0.27485847
229	0xbc87ecd0	-0.016592413
230	0xbe08ab21	-0.1334653
231	0x3bfcb8ac	0.0077124443
232	0x3a5260ef	0.00080253085
233	0xbb514239	-0.003193034
234	0xbd98f6cd	-0.074689485
235	0x3e692790	0.22768998
236	0x3e2f8e7a	0.17144194
237	0x3e836e8b	0.25670275
238	0x3e6d296e	0.23160335
239	0x3df4506b	0.11929401
240	0x3e97d59e	0.29655164
241	0xbe086282	-0.13318828
242	0x3dcb71f2	0.09933843
243	0x3e2a7daf	0.16649507
244	0xbe57953e	-0.21053025
245	0x3d8c3ba3	0.06847312
246	0x3dfb38ea	0.12266715
247	0xbe5358d7	-0.20639358
248	0xbe314e8f	-0.17315124
249	0x3e397f04	0.18114859
250	0xbe614c7f	-0.22001837
251	0xbdfda66f	-0.1238526
252	0xbe560525	-0.209004
253	0x3e0f9cc5	0.14024647
254	0x3e1491f9	0.14508809
255	0x3d02053c	0.031743273

bias f4 [10]
0	0xbd3f7bb5	-0.046748836
1	0x3e514a52	0.20438507
2	0x3d027963	0.031854045
3	0xbdbc7542	-0.09202053
4	0xbe05d0f5	-0.13067992
5	0xbd15dbf5	-0.03658672
6	0xbe4e1267	-0.20124207
7	0x3c5770db	0.013149465
8	0x3e1c3700	0.15255356
9	0x3c6fca35	0.014635612
